final.pt (torch_old, 9730 bytes, 2 tensors)

weight f4 [4, 428]
00000000: 5c3b 77be 8260 40be 3197 40be c414 30be
00000010: 4fad 6ebd 9265 4fbc 6bd5 4d3c 4b58 2cbe
00000020: 0c0c b4bd d09b 823e 7359 90be e099 cebd
00000030: b85d 463e f2e4 42bc c084 f5bd a845 abbd
00000040: 6d8d 7bbe e4f7 813e bbca 0a3d a27f b83d
00000050: 25d8 213e 40ea 8abe 1b4c e63d 19cc 473e
00000060: 6d38 b03d 4766 103e 75a8 18be 6098 8abd
00000070: 890a 1abd 5cde eb3d 6e6b 06bc 4457 f2bd
00000080: f9e7 a8be 1cc3 cabd 1d93 ad3e 3a2e 0f3e
00000090: c16a c7be 8b32 5c3d 52aa 8cbc 25ca b6be
000000a0: 16b0 9abe b861 debd 1c04 d23c b0ee 303e
000000b0: 4f9a d0bc 368a 32be 3888 bb3d f71a 133f
000000c0: 45f3 8c3c 0c47 2cbc 4095 0bbe 7a7d 76be
000000d0: 3ba2 223e 412d 20be d56d 443e 85bb 0f3e
000000e0: 8b84 dc3d cf19 453e fb1c c43e 80b6 87be
000000f0: 8f8d 8f3e 1094 453e 6453 2c3e 15b8 733e
00000100: 2d69 843d 20dd d23d bab4 c5be e9a1 d83d
00000110: 96c3 1c3d 0d10 4e3d 008d 95be c8cb 893e
00000120: 91ae 48bd deb3 36be 0fec c8be ab97 2cbe
00000130: db43 3bbc 7ff4 5a3b 819d ec3e 7450 153b
00000140: 7253 71bb 297d 41bd e3ad 57be 9cc1 92be
00000150: 2ec7 4abe a15b 99be 1861 ccbc b8bf c03e
00000160: 8077 d83e 1669 b83b f4f2 813d 353e 953d
00000170: 06ee 3c3e a7f9 a5be 75b6 0fbe e40a f4bb
00000180: 63ca 51be 7926 673e dbfd ad3e 9cee 45be
00000190: da7b c03e 3e59 633d 3fe1 403c 4a27 4ebe
000001a0: 9211 933d e63c b43d 881a 0dbe a178 33bd
000001b0: 3696 5e3e 45b9 1e3e 3d0b 0bbc f727 1e3e
000001c0: cc20 1a3b 212a 6abe ab5f 173e 250c 6b3e
000001d0: d0e1 123e 8dc1 663d 2ea3 9dbb ec88 e73c
000001e0: 7f40 f43c bc77 82be 3634 053e 863f 1dbe
000001f0: 2504 09bf 749f 963e 3d2c f4bd d443 163e
00000200: f1f0 453d 6c0b 26bd c5d2 b53c 0221 25bd
00000210: 9401 28bd f245 ac3b 75d0 b13b 16b3 8aba
00000220: ddb5 01bd 6ab8 f13b d5bd f0bc a8d4 14bd
00000230: a8fc 4bbd 2639 003d 202d dabc b8bb 35bc
00000240: 12c9 e9bc 2ce5 7e3a d6c1 8f3b 5976 533c
00000250: 7c60 93bb 66a6 963b 5f7d 15bd 236d a93c
00000260: b047 9c3c da33 74bc 97e7 f9bc 4d01 333d
00000270: a391 fb3c d81f b6bc 2fa9 243d 9043 0f3d
00000280: 7771 b63c f161 3cbd c234 d0bc 059a ad3c
00000290: 2a91 e9ba 4602 4b3d 7f4e ae3c ed3a 6abc
000002a0: 5346 363d fae7 24bd 5b1b 543c a404 ae3b
000002b0: 9299 773c ffa3 efbc 4484 34bc a548 b2bc
000002c0: e328 3e3d d05b cd3c c60f 023c fa1f 803c
000002d0: b4e5 3f3d 8cfa 32bb b18e 5b3c 84be 683b
000002e0: 28c9 403d 530e bd3c fd29 ac3c 1bab 49bb
000002f0: a9e1 9339 0358 f3ba 6626 18bd 5740 fbbc
00000300: 1c77 893b 286d d3bc d47c 18bd 2122 a13a
00000310: 1e5f 3dbc 3119 cebb f6dc 173d 5844 c03c
00000320: 9887 363d 4a35 eebb 5c42 7d3b c46d 4b3d
00000330: e625 633b ae64 273c 5fbc 06bd b1bf b4bc
00000340: ecb3 3c3d 4fb6 f6bc 3870 3cbd 4223 813c
00000350: 408a dbbc 90de 16bc 795d 1b3d 035f d43c
00000360: 5d52 323d c94a e43c 5964 0f3d 4d40 e4bc
00000370: 3e03 b5bc ebdb a13c 9362 673c e366 193d
00000380: 1ea8 a43c 7f76 cfbc 2ec9 113d 8674 443c
00000390: 9e1f 62bb 5617 743c 9387 bc3c 942e 163d
000003a0: 3248 603c d7cf a63c 9e81 9a3c 75c8 31bd
000003b0: c38c babc a3f5 423d 1993 0e3d a3db 3a3d
000003c0: eb89 153d 9e40 3dbc aad0 bd3c bc62 c83b
000003d0: dd7e 36bd f46a 1abc cbd6 99bb 8be0 393c
000003e0: af5b 97bb 3043 1dbc ab67 27bd 3834 0d3b
000003f0: 8118 2f3d 94ab af3c 7e5f a4bc 42bb d43b
-0.24143738 -0.18786815 -0.18807675 -0.17195421 -0.05827075 -0.012658494 0.01256309 -0.16830556
-0.0879136 0.255095 -0.28193244 -0.10087943 0.19371688 -0.011895405 -0.11988211 -0.08362895
-0.24565668 0.25384438 0.033884745 0.09008719 0.15805109 -0.27131844 0.11244985 0.19511451
0.08604512 0.14101516 -0.14908011 -0.067673445 -0.037607703 0.11517021 -0.008204324 -0.11833051
-0.3298948 -0.099004954 0.339013 0.13982478 -0.38948634 0.05375914 -0.017171059 -0.357011
-0.30212468 -0.10858482 0.025636725 0.17278552 -0.025464205 -0.17435536 0.09156841 0.5746302
0.017205844 -0.010514986 -0.13631153 -0.24071303 0.15882199 -0.15642263 0.19182523 0.14036377
0.10767468 0.19248126 0.3830336 -0.26506424 0.28037688 0.19294763 0.16828686 0.2380069
0.06465373 0.102960825 -0.38614446 0.10577757 0.038272463 0.050308276 -0.29209137 0.26913285
-0.048994604 -0.17842051 -0.39242598 -0.16854732 -0.011429752 0.0033409891 0.46213916 0.002278355
-0.003682342 -0.047238503 -0.21062426 -0.28663337 -0.19802544 -0.2995272 -0.024948642 0.3764627
0.4227867 0.0056277616 0.06345168 0.07287256 0.18450174 -0.32417032 -0.14034446 -0.0074475873
-0.2048736 0.2257327 0.3398274 -0.19329304 0.3759449 0.05550503 0.011772453 -0.20132175
0.07181086 0.08800678 -0.13779652 -0.043816213 0.21736988 0.15500362 -0.008486566 0.15444933
0.0023518084 -0.22867633 0.14782588 0.22953852 0.14343953 0.05633693 -0.0048107123 0.028263532
0.02981591 -0.25481975 0.13008198 -0.15356264 -0.5352195 0.29418528 -0.119225 0.14674312
0.048325483 -0.040538236 0.02219523 -0.04031468 -0.04101713 0.0052573616 0.0054264613 -0.0010581936
-0.03166758 0.00737672 -0.029387394 -0.036335617 -0.0498015 0.0313045 -0.026632845 -0.011092119
-0.02853826 0.00097234803 0.0043871207 0.012906634 -0.004497586 0.004597473 -0.036496516 0.020681923
0.019077152 -0.0149049405 -0.030505938 0.043702412 0.030709093 -0.022231981 0.04020041 0.034976542
0.022270901 -0.04599184 -0.025415782 0.021191606 -0.0017819752 0.049562715 0.021277664 -0.014296276
0.04450066 -0.040260293 0.012945975 0.005310612 0.015112298 -0.029253004 -0.011017863 -0.021763155
0.04642571 0.025068194 0.007938331 0.015640248 0.04684992 -0.0027309982 0.0134007195 0.0035513947
0.047066838 0.02307812 0.021016115 -0.0030772153 0.00028206155 -0.0018565658 -0.037145995 -0.030670328
0.004195107 -0.025808886 -0.03722842 0.0012293496 -0.011558322 -0.006289624 0.03707596 0.023470089
0.044562906 -0.007269536 0.003864429 0.049665228 0.003466004 0.010216875 -0.03289449 -0.022064062
0.046070024 -0.030116228 -0.046005458 0.015763883 -0.026799321 -0.0092083365 0.03793094 0.025924211
0.04353558 0.027867692 0.03500781 -0.027862692 -0.022096273 0.019758185 0.014122623 0.037451636
0.020099696 -0.025325058 0.03559225 0.011990672 -0.0034503709 0.014898142 0.023013866 0.036665514
0.013689088 0.020362778 0.018860634 -0.04340406 -0.022772199 0.04759754 0.034808252 0.04561962
0.036508482 -0.0115510505 0.023170788 0.0061152857 -0.04455458 -0.009424914 -0.004694795 0.011345039
-0.004619084 -0.009598538 -0.04087035 0.0021546017 0.042747978 0.02144412 -0.020065065 0.0064920494

bias f4 [4]
00000000: 7f28 3a3d 8ba1 6b3c 78f9 23bc 0699 293c
0.045448776 0.014381777 -0.010008208 0.010351425
